…
Counter({'c': 28290, 'js': 15359, 'java': 3177, 'py': 2394})
>>>
>>> # encoding to tokenize as text

7. variable values

>>> Y = pd.get_dummies(code_languages)
>>> print ("Languages :" +str(len(Y.columns)))
Languages :4


>>> X_train, X_test, Y_train, Y_test = train_test_split(X,Y, test_size = 0.20, random_state = 42)
>>> print ( X_train.shape)
(39376, 100)
>>> print ( X_test.shape)
(9844, 100)
>>>


>>> print(model.summary())
_________________________________________________________________
Layer (type)                 Output Shape              Param #
=================================================================
embedding_1 (Embedding)      (None, 100, 128)          1280000
_________________________________________________________________
conv1d_1 (Conv1D)            (None, 100, 128)          49280
_________________________________________________________________
max_pooling1d_1 (MaxPooling1 (None, 25, 128)           0
_________________________________________________________________
conv1d_2 (Conv1D)            (None, 25, 64)            24640
_________________________________________________________________
max_pooling1d_2 (MaxPooling1 (None, 12, 64)            0
_________________________________________________________________
lstm_1 (LSTM)                (None, 64)                33024
_________________________________________________________________
dropout_1 (Dropout)          (None, 64)                0
_________________________________________________________________
dense_1 (Dense)              (None, 64)                4160
_________________________________________________________________
dense_2 (Dense)              (None, 4)                 260
=================================================================
Total params: 1,391,364
Trainable params: 1,391,364
Non-trainable params: 0
_________________________________________________________________
None



-


batch_size = 32
#tbCallBack =TensorBoard(log_dir='G:/tensorflow/text/LanguageDetector/logs', histogram_freq=0, write_graph=True, write_images=True)
history=model.fit(X, Y, epochs = 400, batch_size=batch_size)
…
